        Layer (type)               Output Shape         Param #
================================================================
            Conv2d-1          [-1, 128, 32, 32]           3,456
      SwitchNorm2d-2          [-1, 128, 32, 32]             256
              ReLU-3          [-1, 128, 32, 32]               0
            Conv2d-4          [-1, 128, 32, 32]         147,456
      SwitchNorm2d-5          [-1, 128, 32, 32]             256
              ReLU-6          [-1, 128, 32, 32]               0
            Conv2d-7          [-1, 128, 32, 32]         147,456
      SwitchNorm2d-8          [-1, 128, 32, 32]             256
 AdaptiveAvgPool2d-9            [-1, 128, 1, 1]               0
           Linear-10                    [-1, 8]           1,032
             ReLU-11                    [-1, 8]               0
           Linear-12                  [-1, 128]           1,152
          Sigmoid-13                  [-1, 128]               0
          SELayer-14          [-1, 128, 32, 32]               0
             ReLU-15          [-1, 128, 32, 32]               0
  LczSEBasicBlock-16          [-1, 128, 32, 32]               0
           Conv2d-17          [-1, 128, 32, 32]         147,456
     SwitchNorm2d-18          [-1, 128, 32, 32]             256
             ReLU-19          [-1, 128, 32, 32]               0
           Conv2d-20          [-1, 128, 32, 32]         147,456
     SwitchNorm2d-21          [-1, 128, 32, 32]             256
AdaptiveAvgPool2d-22            [-1, 128, 1, 1]               0
           Linear-23                    [-1, 8]           1,032
             ReLU-24                    [-1, 8]               0
           Linear-25                  [-1, 128]           1,152
          Sigmoid-26                  [-1, 128]               0
          SELayer-27          [-1, 128, 32, 32]               0
             ReLU-28          [-1, 128, 32, 32]               0
  LczSEBasicBlock-29          [-1, 128, 32, 32]               0
           Conv2d-30          [-1, 128, 32, 32]         147,456
     SwitchNorm2d-31          [-1, 128, 32, 32]             256
             ReLU-32          [-1, 128, 32, 32]               0
           Conv2d-33          [-1, 128, 32, 32]         147,456
     SwitchNorm2d-34          [-1, 128, 32, 32]             256
AdaptiveAvgPool2d-35            [-1, 128, 1, 1]               0
           Linear-36                    [-1, 8]           1,032
             ReLU-37                    [-1, 8]               0
           Linear-38                  [-1, 128]           1,152
          Sigmoid-39                  [-1, 128]               0
          SELayer-40          [-1, 128, 32, 32]               0
             ReLU-41          [-1, 128, 32, 32]               0
  LczSEBasicBlock-42          [-1, 128, 32, 32]               0
        AvgPool2d-43          [-1, 128, 16, 16]               0
           Conv2d-44          [-1, 256, 16, 16]          32,768
     SwitchNorm2d-45          [-1, 256, 16, 16]             512
           Conv2d-46          [-1, 256, 16, 16]         294,912
     SwitchNorm2d-47          [-1, 256, 16, 16]             512
             ReLU-48          [-1, 256, 16, 16]               0
           Conv2d-49          [-1, 256, 16, 16]         589,824
     SwitchNorm2d-50          [-1, 256, 16, 16]             512
AdaptiveAvgPool2d-51            [-1, 256, 1, 1]               0
           Linear-52                   [-1, 16]           4,112
             ReLU-53                   [-1, 16]               0
           Linear-54                  [-1, 256]           4,352
          Sigmoid-55                  [-1, 256]               0
          SELayer-56          [-1, 256, 16, 16]               0
             ReLU-57          [-1, 256, 16, 16]               0
  LczSEBasicBlock-58          [-1, 256, 16, 16]               0
           Conv2d-59          [-1, 256, 16, 16]         589,824
     SwitchNorm2d-60          [-1, 256, 16, 16]             512
             ReLU-61          [-1, 256, 16, 16]               0
           Conv2d-62          [-1, 256, 16, 16]         589,824
     SwitchNorm2d-63          [-1, 256, 16, 16]             512
AdaptiveAvgPool2d-64            [-1, 256, 1, 1]               0
           Linear-65                   [-1, 16]           4,112
             ReLU-66                   [-1, 16]               0
           Linear-67                  [-1, 256]           4,352
          Sigmoid-68                  [-1, 256]               0
          SELayer-69          [-1, 256, 16, 16]               0
             ReLU-70          [-1, 256, 16, 16]               0
  LczSEBasicBlock-71          [-1, 256, 16, 16]               0
           Conv2d-72          [-1, 256, 16, 16]         589,824
     SwitchNorm2d-73          [-1, 256, 16, 16]             512
             ReLU-74          [-1, 256, 16, 16]               0
           Conv2d-75          [-1, 256, 16, 16]         589,824
     SwitchNorm2d-76          [-1, 256, 16, 16]             512
AdaptiveAvgPool2d-77            [-1, 256, 1, 1]               0
           Linear-78                   [-1, 16]           4,112
             ReLU-79                   [-1, 16]               0
           Linear-80                  [-1, 256]           4,352
          Sigmoid-81                  [-1, 256]               0
          SELayer-82          [-1, 256, 16, 16]               0
             ReLU-83          [-1, 256, 16, 16]               0
  LczSEBasicBlock-84          [-1, 256, 16, 16]               0
        AvgPool2d-85            [-1, 256, 8, 8]               0
           Conv2d-86            [-1, 512, 8, 8]         131,072
     SwitchNorm2d-87            [-1, 512, 8, 8]           1,024
           Conv2d-88            [-1, 512, 8, 8]       1,179,648
     SwitchNorm2d-89            [-1, 512, 8, 8]           1,024
             ReLU-90            [-1, 512, 8, 8]               0
           Conv2d-91            [-1, 512, 8, 8]       2,359,296
     SwitchNorm2d-92            [-1, 512, 8, 8]           1,024
AdaptiveAvgPool2d-93            [-1, 512, 1, 1]               0
           Linear-94                   [-1, 32]          16,416
             ReLU-95                   [-1, 32]               0
           Linear-96                  [-1, 512]          16,896
          Sigmoid-97                  [-1, 512]               0
          SELayer-98            [-1, 512, 8, 8]               0
             ReLU-99            [-1, 512, 8, 8]               0
 LczSEBasicBlock-100            [-1, 512, 8, 8]               0
          Conv2d-101            [-1, 512, 8, 8]       2,359,296
    SwitchNorm2d-102            [-1, 512, 8, 8]           1,024
            ReLU-103            [-1, 512, 8, 8]               0
          Conv2d-104            [-1, 512, 8, 8]       2,359,296
    SwitchNorm2d-105            [-1, 512, 8, 8]           1,024
AdaptiveAvgPool2d-106            [-1, 512, 1, 1]               0
          Linear-107                   [-1, 32]          16,416
            ReLU-108                   [-1, 32]               0
          Linear-109                  [-1, 512]          16,896
         Sigmoid-110                  [-1, 512]               0
         SELayer-111            [-1, 512, 8, 8]               0
            ReLU-112            [-1, 512, 8, 8]               0
 LczSEBasicBlock-113            [-1, 512, 8, 8]               0
          Conv2d-114            [-1, 512, 8, 8]       2,359,296
    SwitchNorm2d-115            [-1, 512, 8, 8]           1,024
            ReLU-116            [-1, 512, 8, 8]               0
          Conv2d-117            [-1, 512, 8, 8]       2,359,296
    SwitchNorm2d-118            [-1, 512, 8, 8]           1,024
AdaptiveAvgPool2d-119            [-1, 512, 1, 1]               0
          Linear-120                   [-1, 32]          16,416
            ReLU-121                   [-1, 32]               0
          Linear-122                  [-1, 512]          16,896
         Sigmoid-123                  [-1, 512]               0
         SELayer-124            [-1, 512, 8, 8]               0
            ReLU-125            [-1, 512, 8, 8]               0
 LczSEBasicBlock-126            [-1, 512, 8, 8]               0
AdaptiveAvgPool2d-127            [-1, 512, 1, 1]               0
          Linear-128                   [-1, 10]           5,130
================================================================
Total params: 17,421,746
Trainable params: 17,421,746
Non-trainable params: 0
----------------------------------------------------------------
Input size (MB): 0.01
Forward/backward pass size (MB): 46.94
Params size (MB): 66.46
Estimated Total Size (MB): 113.41
----------------------------------------------------------------
